torch_model/model_0.7608108108108108.model (torch_old, 626825 bytes, 24 tensors)

weight_ih_l0 f4 [256, 10]
-0.056806967 0.053058896 -0.082842834 0.087752305 -0.11925015 0.09117833 0.0029611147 -0.067188926
0.018668674 0.071636446 -0.020747365 0.012460683 -0.010256906 0.011444544 0.016366728 0.0010820343
0.009468549 0.00837896 0.0059841964 0.010108618 -0.037052874 0.0008662574 0.046246123 -0.09422171
0.057727218 -0.09380178 0.06145416 -0.044237547 -0.10409393 0.099604174 0.0028014565 0.0023899958
-0.0046392684 0.009002159 0.00865186 0.018896244 0.027306171 0.030701142 0.020653766 0.013317568
0.1741596 0.06990517 0.08080136 -0.0091096265 -0.102748685 0.08396815 0.13253738 -0.07030157
-0.062099755 -0.07397807 0.11091542 -0.016513743 0.086635865 0.043042492 -0.054285936 0.15139261
0.043825176 -0.020462388 -0.078352556 -0.025004793 -0.14440703 0.11245287 -0.02663217 -0.017607747
-0.018685753 0.06813773 -0.15130301 -0.010448614 0.057059616 0.10786508 -0.042587526 -0.011236498
-0.11420698 0.05711618 0.040601883 -0.06901281 0.10918494 0.03540172 0.04924203 0.070945814
0.08112083 0.050184634 0.04430414 0.050414827 0.021607077 -0.010215074 -0.018163327 -0.06642764
-0.046593547 -0.0014974659 0.11366557 0.041465167 0.077589564 -0.07966534 0.02143956 0.019927297
-0.08074417 -0.020308368 0.053648535 0.10792818 -0.059184067 -0.008960945 0.04925353 0.025229638
-0.015172467 -0.025360601 0.029807063 -0.025186459 -0.076369785 0.009570694 0.12884952 -0.08047319
-0.052072056 -0.019729445 -0.06246313 0.010989245 0.0010983103 -0.08505614 0.100741714 0.0819539
0.028721405 0.004624516 -0.05999811 0.08808376 -0.01144641 0.058664963 0.039380096 -0.028926782
-0.050462384 0.010249435 -0.008102466 0.019001165 -0.03852132 0.08798377 -0.09258661 -0.053187534
0.02594642 -0.09466226 0.008988203 -0.013546494 -0.04509296 0.04074538 0.06614492 0.023700241
-0.03358352 -0.08890587 -0.036733266 0.03338247 -0.02940021 -0.0023181688 -0.07353993 0.04779409
0.10600749 0.012331925 -0.103003114 0.08896963 -0.123148814 0.06021135 0.11812747 0.15372069
-0.0054591466 0.050242193 0.045784507 0.085245244 -0.024003811 0.025516924 0.106086634 -0.05158231
-0.14171313 -0.13991667 0.03065247 -0.022491716 0.03444628 0.08077588 -0.069262356 0.04812222
-0.033517133 0.063556395 -0.11881723 0.0743145 0.037324835 -0.00020976814 -0.030303283 -0.05349484
0.039675154 -0.028746458 -0.037229385 0.061618272 -0.05490732 0.03966147 0.05208684 -0.03942804
-0.12098963 -0.13904494 0.015118855 -0.074242525 0.055133205 0.08987684 0.04329163 -0.019767022
-0.038262434 -0.08743801 0.1099603 0.017079823 0.011838191 -0.08777547 -0.07879788 0.0031509926
0.05415139 0.029303402 0.02778663 0.040731277 0.03474955 0.008564133 -0.057210263 -0.008918589
0.088504255 0.08853114 -0.077038415 -0.0839371 0.017929465 -0.021276586 -0.0668492 -0.09010923
0.0058085127 -0.13353622 0.06315978 0.04107294 -0.10054645 0.065346435 0.0043087797 0.00020901291
-0.009309129 -0.008574206 0.013424246 0.011358807 0.013222993 0.011773962 0.011609813 0.012984386
0.017459825 0.005453254 0.014364224 0.006296086 -0.06828256 -0.018841201 0.03264513 0.07881957
0.03362348 0.043763008 0.016350774 -0.0063263765 0.0026007867 0.012971826 0.0051383628 -0.004155041
00000000: 6cae 68bd 4954 593d 81a9 a9bd 7bb7 b33d
00000010: 6c39 f4bd b4bb ba3d 430f 423b 599a 89bd
00000020: 0cef 983c 21b6 923d 61f6 a9bc e427 4c3c
00000030: 950c 28bc e681 3b3c 8413 863c 0cd3 8d3a
00000040: f921 1b3c e847 093c 1417 c43b 9e9e 253c
00000050: c1c4 17bd 8d15 633a 936c 3d3d 50f7 c0bd
00000060: 6073 6c3d 261b c0bd 5bb7 7b3d 6e32 35bd
00000070: 332f d5bd 46fd cb3d a498 373b 7aa1 1c3b
00000080: 0105 98bb cb7d 133c 88c0 0d3c 4ccc 9a3c
00000090: 31b1 df3c f680 fb3c 1632 a93c ee31 5a3c
000000a0: e556 323e 712a 8f3d 2f7b a53d 8b40 15bc
000000b0: e76d d2bd 7ef7 ab3d e1b7 073e 45fa 8fbd
000000c0: 505c 7ebd d081 97bd a027 e33d d447 87bc
000000d0: 256e b13d 534d 303d ee5a 5ebd aa06 1b3e
000000e0: 0782 333d bda0 a7bc 4e77 a0bd dad6 ccbc
000000f0: 70df 13be b14d e63d b52b dabc 1f3e 90bc
00000100: dd12 99bc cb8b 8b3d 2def 1abe aa30 2bbc
00000110: 58b7 693d 5ee8 dc3d 4270 2ebd 4a19 38bc
00000120: 59e5 e9bd a8f2 693d 294e 263d 9756 8dbd
00000130: 5b9c df3d 6501 113d 03b2 493d 0a4c 913d
00000140: ad22 a63d 678e 4d3d 4278 353d c77f 4e3d
00000150: 5301 b13c 205d 27bc 42cb 94bc 370b 88bd
00000160: e0d8 3ebd 9e46 c4ba 7fc9 e83d 61d7 293d
00000170: 47e7 9e3d 9527 a3bd 04a2 af3c 923e a33c
00000180: 335d a5bd bc5d a6bc 91be 5b3d 7309 dd3d
00000190: fe6a 72bd edd0 12bc 12be 493d 63ae ce3c
000001a0: f095 78bc 09c1 cfbc f12d f43c d553 cebc
000001b0: c367 9cbd 66ce 1c3c 21f1 033e 21cf a4bd
000001c0: 8249 55bd a59f a1bc 57d9 7fbd 3c0c 343c
000001d0: 2ef5 8f3a ea31 aebd ac51 ce3d 72d7 a73d
000001e0: 2749 eb3c 4089 973b 94c0 75bd 4265 b43d
000001f0: b989 3bbc ac4a 703d 064d 213d dcf7 ecbc
00000200: a5b1 4ebd 3fed 273c 35c0 04bc 55a8 9b3c
00000210: 88c8 1dbd d630 b43d 0c9e bdbd 2cdb 59bd
00000220: 968d d43c 49de c1bd 4143 133c 1df2 5dbc
00000230: 65b3 38bd a1e4 263d fd76 873d 0227 c23c
00000240: e08e 09bd 4814 b6bd 9f75 16bd 0fbc 083d
00000250: b6d8 f0bc 6bec 17bb 1a9c 96bd bcc3 433d
00000260: 741a d93d d80b 4a3c 4cf3 d2bd b635 b63d
00000270: 7235 fcbd 2da0 763d d1ec f13d f568 1d3e
00000280: a4e2 b2bb c2ca 4d3d 8988 3b3d 0f95 ae3d
00000290: a4a3 c4bc de08 d13c f343 d93d f947 53bd
000002a0: 3f1d 11be 5146 0fbe e41a fb3c 8c40 b8bc
000002b0: 8b17 0d3d d36d a53d 6cd9 8dbd ce1b 453d
000002c0: 4349 09bd db29 823d 7356 f3bd 3332 983d
000002d0: ede1 183d 35f5 5bb9 973e f8bc 681d 5bbd
000002e0: 6a82 223d b17d ebbc d77d 18bd 7163 7c3d
000002f0: 7fe6 60bd 1174 223d 0359 553d 4c7f 21bd
00000300: 69c9 f7bd cc61 0ebe 13b5 773c 770c 98bd
00000310: 5bd3 613d 5911 b83d 9052 313d 73ee a1bc
00000320: 12b9 1cbd b312 b3bd de32 e13d fcea 8b3c
00000330: f9f4 413c a0c3 b3bd c860 a1bd e280 4e3b
00000340: d9cd 5d3d b00d f03c c9a0 e33c d7d5 263d
00000350: 8b55 0e3d 9450 0c3c 4f55 6abd 461f 12bc
00000360: b841 b53d d04f b53d 51c6 9dbd 37e7 abbd
00000370: d0e0 923c 3c4c aebc 3ce8 88bd 308b b8bd
00000380: 5655 be3b b8bd 08be ea59 813d 193c 283d
00000390: 4ceb cdbd 5ad4 853d aa30 8d3b 7a2a 5b39
000003a0: 5185 18bc d47a 0cbc 5ef1 5b3c 4a1a 3a3c
000003b0: 41a5 583c 93e7 403c 1637 3e3c 76bc 543c
000003c0: e807 8f3c 36b1 b23b ec57 6b3c 664f ce3b
000003d0: bad7 8bbd dd58 9abc e6b6 053d 286c a13d
000003e0: c6b8 093d d740 333d 0ff2 853c 7e4d cfbb
000003f0: f671 2a3b c887 543c b65f a83b 0327 88bb

weight_hh_l0 f4 [256, 64]
-0.02516018 0.018659657 0.055390477 -0.031164896 -0.060386058 0.006941961 0.014535909 0.004471755
0.02716029 -0.0067904745 0.018150715 -0.06470024 -0.029532641 -0.014382149 0.008548397 0.010343002
-0.024189841 0.036849737 0.009904999 -0.0040353206 0.0016303682 0.013444593 0.013111497 -0.0101117
-0.0090157455 0.015056192 0.0035454524 0.012008968 0.03812975 -0.0043388717 0.012860498 0.004023075
0.0019048138 0.031611077 0.05793183 -0.07009934 -0.018585255 0.012241267 -0.020013994 -0.03760624
-0.044604465 0.018968696 0.03673298 -0.038628213 0.04025254 -0.012202864 -0.0017240257 0.006933176
-0.038446788 -0.0011090988 0.007546794 -0.016619178 0.0044575473 0.014662823 0.025520282 -0.026406711
-0.04169876 -0.005451008 0.014464378 0.006448187 -0.036674473 -0.0077098827 -0.0636183 0.0008536106
-0.0040612784 0.00375546 0.0018184044 0.0031774782 0.008250261 -0.004601481 -0.00050523743 -0.004334453
0.001681556 0.009318427 -0.000504852 0.0075926417 -0.0108368425 -0.003126252 0.006371797 -0.0012001932
-0.015053403 0.0069615277 -0.012939698 0.0009813326 0.02418281 -0.0002478192 -0.001109902 0.004346423
0.009618918 0.0066387244 0.018208088 -0.002577966 0.0070382757 -0.0027681922 0.002224509 -0.010811575
-0.014892639 0.001981845 -0.0006323524 -0.0023875346 0.00545208 -0.005040415 0.0017145192 -0.0080132
-0.006877439 0.010520117 0.00542089 0.0063129854 -0.0012775323 0.0043052235 0.0062658787 0.0077323196
0.0046375976 -0.0025436827 0.008802266 0.021779114 0.012681676 -0.0065237223 0.004969481 0.0047270088
-0.0068369 0.00021366436 -0.01564615 -0.004222368 0.011065681 0.0060288124 -0.0032773106 -0.0013592106
0.017492736 -0.02057259 -0.03759727 -0.022611516 0.013013164 -0.090314895 0.019211527 -0.052855134
-0.019705132 -0.014999744 0.02029133 -0.0806377 0.11928296 -0.0031559889 0.06906709 -0.09016928
0.064528644 -0.052672595 -0.022136586 -0.027901841 -0.06160744 -0.037742164 0.053039975 0.0005148212
0.07219866 0.0072805756 -0.029797092 -0.06662598 0.016282605 0.09898469 0.032694858 0.040963743
0.006562061 -0.030371603 0.07417657 -0.04097706 0.0368126 -0.1302132 -0.012247409 0.027024195
-0.05808116 0.059064876 0.014999004 0.03642238 0.017049573 0.039997585 0.013380811 -0.06739483
-0.032294717 0.030373894 -0.0970836 -0.04134866 -0.028200686 0.10018662 -0.038653083 -0.03616345
-0.10190492 -0.014217643 -0.03804778 -0.057749182 -0.08017384 -0.019837296 0.045802 0.033508644
-0.0012555165 -0.0024927969 0.0025149581 -0.001848176 -0.0012263462 0.0013615041 -0.00011363678 -0.00085183536
0.00059149286 -0.0009880749 0.0010853022 -0.0010169236 0.0013724264 -0.00014381403 0.0016455064 6.217931e-05
-0.0028249111 8.293235e-05 0.00016904896 0.00115379 8.783019e-05 -0.0012404997 -0.0012312945 0.0010981099
0.0006036431 0.00016815083 0.0050819684 0.0014544607 -0.00023296369 -0.0026723854 0.0026582824 -0.00097506645
0.00025615143 0.00096631056 -0.0023538666 -0.0019989202 3.7396094e-05 0.0032403308 8.8832225e-05 0.00054056104
0.00033307102 -0.0023990548 0.0007163314 -0.0010821875 0.001269208 -0.00048831344 9.9517456e-05 0.0002897816
0.0032517237 -0.00026429072 -0.0024764165 0.0015692131 -0.00040615114 -0.0015025415 -0.0004505788 -7.330264e-05
-1.3441505e-05 -0.0005110278 -0.00012857975 -0.00195649 -0.00225897 0.00039981547 0.0006247152 2.4284882e-05
00000000: b91c cebc 23dc 983c 20e1 623d 864d ffbc
00000010: 5f57 77bd 6479 e33b 0528 6e3c cd87 923b
00000020: 427f de3c a182 debb cfb0 943c 8f81 84bd
00000030: 70ee f1bc 1ba3 6bbc 930e 0c3c b275 293c
00000040: c629 c6bc c0ef 163d 9448 223c b93a 84bb
00000050: 14b2 d53a b646 5c3c 9bd1 563c 8bab 25bc
00000060: c7b6 13bc 3fae 763c d25a 683b 43c1 443c
00000070: f12d 1c3d 182d 8ebb d7b4 523c 00d4 833b
00000080: f2aa f93a 9e7a 013d ed49 6d3d 3e90 8fbd
00000090: 1b40 98bc 988f 483c 63f4 a3bc 0009 1abd
000000a0: 2cb3 36bd 3d64 9b3c 5275 163d 9e38 1ebd
000000b0: d9df 243d 85ee 47bc b4f8 e1ba b22f e33b
000000c0: 617a 1dbd 2e5f 91ba 194b f73b f124 88bc
000000d0: 9e10 923b 563c 703c e90f d13c e352 d8bc
000000e0: 52cc 2abd 5f9e b2bb 00fc 6c3c 504b d33b
000000f0: f937 16bd 2fa3 fcbb 504a 82bd d6c4 5f3a
00000100: 7914 85bb 2a1e 763b 8757 ee3a 3d3d 503b
00000110: 1a2c 073c 05c8 96bb e971 04ba 0708 8ebb
00000120: a867 dc3a 51ac 183c 0b58 04ba b2cb f83b
00000130: 038d 31bc cee1 4cbb 82ca d03b cd4f 9dba
00000140: 8ca2 76bc 871d e43b 0701 54bc 0fa0 803a
00000150: 071b c63c bbed 81b9 227a 91ba 706c 8e3b
00000160: ab98 1d3c a889 d93b 2129 953c 18f3 28bb
00000170: 56a1 e63b 8f6a 35bb 11c9 113b 0823 31bc
00000180: 4100 74bc d7e1 013b 74c4 25ba 2f78 1cbb
00000190: 5da7 b23b 112a a5bb b8b9 e03a cc49 03bc
000001a0: 245c e1bb 925c 2c3c b9a1 b13b 29dd ce3b
000001b0: df72 a7ba d512 8d3b 0052 cd3b 665f fd3b
000001c0: fdf6 973b eab3 26bb 6137 103c 1d6a b23c
000001d0: cec6 4f3c f3c4 d5bb 07d7 a23b 06e5 9a3b
000001e0: 1308 e0bb 170b 6039 5b2c 80bc ca5b 8abb
000001f0: d54c 353c 588d c53b 26c8 56bb 8a27 b2ba
00000200: ed4c 8f3c d987 a8bc 98ff 19bd c93b b9bc
00000210: 2a35 553c 04f7 b8bd 7e61 9d3c a07e 58bd
00000220: a86c a1bc 7cc1 75bc 013a a63c 6125 a5bd
00000230: a04a f43d b5d4 4ebb 0c73 8d3d acaa b8bd
00000240: 9827 843d 38bf 57bd c957 b5bc 6792 e4bc
00000250: 1558 7cbd 8797 1abd 7240 593d 11f5 063a
00000260: e4dc 933d e591 ee3b 0819 f4bc 3473 88bd
00000270: 1963 853c 7cb8 ca3d 0beb 053d 99c9 273d
00000280: 8f06 d73b decd f8bc e3e9 973d 90d7 27bd
00000290: cfc8 163d 9c56 05be 5ba9 48bc d861 dd3c
000002a0: 83e6 6dbd 03ee 713d 62be 753c a22f 153d
000002b0: 8cab 8b3c 82d4 233d 303b 5b3c 4d06 8abd
000002c0: 7747 04bd acd2 f83c c4d3 c6bd 365d 29bd
000002d0: 2005 e7bc a52e cd3d b252 1ebd 2020 14bd
000002e0: 87b3 d0bd 1ef1 68bc fdd7 1bbd 688a 6cbd
000002f0: 2f32 a4bd d381 a2bc e19a 3b3d 5c40 093d
00000300: 2590 a4ba 315e 23bb ffd1 243b 7f3e f2ba
00000310: 5abd a0ba 7f74 b23a 4850 eeb8 b44d 5fba
00000320: 6a0e 1b3a 4b82 81ba b340 8e3a 4b4a 85ba
00000330: fde2 b33a c9cc 16b9 08ae d73a 4366 8238
00000340: 2522 39bb f7eb ad38 bc42 3139 c53a 973a
00000350: 7931 b838 4398 a2ba 6363 a1ba 74ee 8f3a
00000360: cd3d 1e3a a551 3039 a486 a63b 9aa3 be3a
00000370: b747 74b9 3023 2fbb 9436 2e3b 9a9b 7fba
00000380: 104c 8639 0150 7d3a 5443 1abb 5100 03bb
00000390: c0d9 1c38 bb5b 543b 704b ba38 70b4 0d3a
000003a0: 09a0 ae39 7639 1dbb 30c8 3b3a 30d8 8dba
000003b0: 8e5b a63a 2902 00ba 07b4 d038 d4ed 9739
000003c0: df1a 553b 8090 8ab9 604b 22bb 0eae cd3a
000003d0: aff0 d4b9 edf0 c4ba aa3b ecb9 0eba 99b8
000003e0: d382 61b7 7ff6 05ba 5dd3 06b9 7538 00bb
000003f0: 3a0b 14bb 539e d139 edc3 233a 63b7 cb37

bias_ih_l0 f4 [256]
-0.002865173 -0.005536709 0.08396163 0.00063338404 -0.04141138 -0.047297873 -0.045086067 -0.003348007
0.021608219 -0.07149525 0.0010648366 0.042726617 -0.009621766 0.012474566 0.0362057 0.044638664
-0.06320137 -0.003874361 0.0020648648 -0.04234159 0.02662274 0.011748361 -0.018557373 0.0014157064
-0.0034819383 0.01171407 0.04421473 -0.031175956 -0.0022712995 0.001797786 0.063630745 -0.014094256
0.020514105 -0.0627755 -0.024377435 -0.026932614 0.00084959547 0.0010145064 0.002651715 -0.022547677
-0.01988046 0.013837802 0.056370668 -0.0070676478 -0.010855755 0.00040066338 0.001954571 0.009763131
0.027105415 -0.0008678324 0.07076851 -0.03538862 -0.0017887658 0.063201055 0.015477884 -0.00724939
0.0036909396 0.004981809 -0.024339298 -0.048204016 0.018327126 0.017349256 0.03525661 0.00010204641
0.0148991225 -0.008749693 -0.018932937 0.0117101045 0.012920967 0.05058164 0.005103974 0.030259436
0.018364359 0.0024870734 -0.010155567 0.04680598 -0.0016037396 0.0046095317 0.024162954 0.026251985
0.0612042 -0.038169563 -0.0012619575 0.0014644593 0.0048260232 0.00040782843 0.0033117856 0.0040751086
-0.005653293 0.0018908903 -0.010917458 0.011636099 0.0010477237 0.021909565 -0.034297753 0.0009280303
0.0050283 -0.05956139 0.015473335 -0.00041877755 0.008101711 -0.007697665 -4.9931205e-06 0.009845989
0.006770995 -0.0048322887 -0.054932915 0.009272095 -0.0022163726 0.014926294 -0.0051875925 0.0068959678
0.027645038 -0.029493166 -0.01650028 -0.0045264973 0.013661098 0.074730314 0.0051062778 -0.00041648262
0.005215184 0.010856816 -0.0036963003 -0.00015813157 0.024301695 -0.008186368 0.007072256 0.00030783456
-0.00922839 -0.0033921623 -0.11552468 0.018334055 0.0027383394 -0.0725862 0.05196991 -0.06191281
-0.054892052 -0.07216656 0.007804244 -0.019329425 -0.07207652 -0.0028720095 0.0060225525 0.017215842
-0.033932164 -0.04238097 0.00089198863 0.033489373 0.031200664 0.030549487 0.0015289999 0.0044749337
-0.0014272092 -0.0065872944 -0.06612829 0.02534353 -0.0046649375 -0.011391821 -0.038942292 -0.013477638
0.0030384504 -0.0072813584 -0.028778076 -0.03346868 -0.013599024 0.04517299 -0.00088877016 0.08718394
0.03186517 0.008364178 -0.0067778626 0.02279425 -0.011091598 -0.01564882 -0.0020171807 -0.0040343883
-0.095480755 -0.009394868 -0.07194947 0.010151816 0.00020210148 0.007910141 0.0031449848 0.0002827581
0.0014795773 -0.0016883084 0.003441918 0.005824042 -0.0031992742 -0.017758708 -0.030489972 -0.00010085492
-0.01644658 -0.026888901 -0.031116897 -0.06020138 0.003993472 -0.02460255 -0.02098702 0.010061082
-0.014741776 0.0018883158 -0.03884495 -0.007893467 -0.039414153 0.0011991841 -0.007160072 0.041799393
0.07286762 -0.01523616 0.0071813194 0.003536834 0.0049975705 -0.012158886 0.01733603 0.022702808
-0.025920194 -0.02047727 0.030601818 -0.026420766 -0.0005800561 0.00044912877 -0.010108953 -0.013122037
0.030585188 -0.0049262643 0.008621987 -0.010403307 0.032062232 -0.0003735338 -0.00088509696 -0.01841282
0.0008553394 0.012491995 0.07193775 -0.017195027 -0.05655729 0.04294577 0.011752077 0.015308243
-0.023546737 -0.0043851817 -0.023409076 0.019219471 -0.0003466425 0.023083553 0.046320286 0.013659227
-0.036966957 0.002169395 -0.01104469 -0.024399677 7.2400035e-05 0.04073314 -0.017969944 0.005315827
00000000: a0c5 3bbb 486d b5bb 13f4 ab3d af09 263a
00000010: fb9e 29bd 6abb 41bd 2bac 38bd 3d6a 5bbb
00000020: b803 b13c 1a6c 92bd fd91 8b3a 1b02 2f3d
00000030: 9da4 1dbc 1f62 4c3c 6e4c 143d 08d7 363d
00000040: b86f 81bd fee8 7dbb af52 073b 606e 2dbd
00000050: ef17 da3c 337c 403c a205 98bc 398f b93a
00000060: 3b31 64bb 5fec 3f3c 811a 353d b864 ffbc
00000070: 15da 14bb b0a3 eb3a d650 823d 98eb 66bc
00000080: 320d a83c 7190 80bd 30b3 c7bc c9a1 dcbc
00000090: 63b7 5e3a 30f9 843a 65c8 2d3b e8b5 b8bc
000000a0: 59dc a2bc f3b7 623c eee4 663d ba97 e7bb
000000b0: 56dc 31bc 2110 d239 4318 003b 8af5 1f3c
000000c0: 2d0c de3c 3f7f 63ba 15ef 903d a8f3 10bd
000000d0: 0575 eaba 8e6f 813d f396 7d3c 4a8c edbb
000000e0: b1e3 713b 713e a33b 3563 c7bc 9371 45bd
000000f0: c522 963c 0720 8e3c 3c69 103d c001 d638
00000100: 731b 743c df5a 0fbc 3f19 9bbc bddb 3f3c
00000110: 77b2 533c b22e 4f3d 3d3f a73b a3e2 f73c
00000120: da70 963c 2bfe 223b 8963 26bc a1b7 3f3d
00000130: 9234 d2ba 8e0b 973b 63f1 c53c 670e d73c
00000140: 41b1 7a3d b057 1cbd 4468 a5ba 1af3 bf3a
00000150: 9e23 9e3b ced1 d539 8b0a 593b 7d88 853b
00000160: 423f b9bb c0d7 f73a 23df 32bc 56a5 3e3c
00000170: c653 893a b07b b33c cd7b 0cbd 0f47 733a
00000180: 70c4 a43b a5f6 73bd df83 7d3c 5f8f dbb9
00000190: 0abd 043c b23c fcbb 948a a7b6 1251 213c
000001a0: 39df dd3b 2d58 9ebb 5601 61bd fce9 173c
000001b0: 9040 11bb 6a8d 743c aefc a9bb 92f7 e13b
000001c0: d977 e23c a79b f1bc 982b 87bc 0353 94bb
000001d0: ccd2 5f3c 350c 993d 9052 a73b 5a5b dab9
000001e0: 22e4 aa3b c9e0 313c a13d 72bb 1fd0 25b9
000001f0: 5914 c73c 1e20 06bc 62be e73b db64 a139
00000200: ac32 17bc 0a4f 5ebb 3498 ecbd 4d31 963c
00000210: b675 333b 13a8 94bd 66de 543d 4998 7dbd
00000220: 7dd6 60bd 10cc 93bd beba ff3b be58 9ebc
00000230: db9c 93bd 5338 3cbb d558 c53b 3d08 8d3c
00000240: 74fc 0abd ab97 2dbd 58d4 693a 272c 093d
00000250: 8998 ff3c eb42 fa3c b968 c83a 77a2 923b
00000260: 3211 bbba 3bda d7bb 456e 87bd 3c9d cf3c
00000270: 55dc 98bb c3a4 3abc f481 1fbd 50d1 5cbc
00000280: bd20 473b 7698 eebb 00c0 ebbc 7416 09bd
00000290: 71ce 5ebc 5007 393d 5bfc 68ba 7e8d b23d
000002a0: 0d85 023d e809 093c d518 debb 02bb ba3c
000002b0: 89b9 35bc f431 80bc ad32 04bb e732 84bb
000002c0: 6a8b c3bd efec 19bc 3e5a 93bd cd53 263c
000002d0: 34eb 5339 8999 013c 171c 4e3b 263f 9439
000002e0: 60ee c13a 3b4a ddba cd91 613b 9bd7 be3b
000002f0: eaaa 51bb b67a 91bc 1bc6 f9bc 1382 d3b8
00000300: faba 86bc 1d46 dcbc dde8 febc b995 76bd
00000310: acdb 823b 498b c9bc f9ec abbc 3dd7 243c
00000320: 7d87 71bc 5d81 f73a e21b 1fbd 9a53 01bc
00000330: bc70 21bd f12d 9d3a 0a9f eabb d735 2b3d
00000340: 9e3b 953d 16a1 79bc 4651 eb3b 3aca 673b
00000350: a9c2 a33b 1036 47bc 4a04 8e3c 3dfb b93c
00000360: 9656 d4bc f3bf a7bc aab0 fa3c 5d70 d8bc
00000370: e80e 18ba 0b79 eb39 06a0 25bc d0fd 56bc
00000380: ca8d fa3c 806c a1bb 3c43 0d3c a272 2abc
00000390: b053 033d dcd6 c3b9 da05 68ba 7bd6 96bc
000003a0: db38 603a 39ab 4c3c 1954 933d 96dc 8cbc
000003b0: 9ea8 67bd e7e7 2f3d c98b 403c 6dcf 7a3c
000003c0: 16e5 c0bc 92b1 8fbb 64c4 bfbc 2772 9d3c
000003d0: 92bd b5b9 b819 bd3c 57ba 3d3d f3ca 5f3c
000003e0: aa6a 17bd 692c 0e3b caf4 34bc d5e1 c7bc
000003f0: 79d5 9738 cbd7 263d b435 93bc 6430 ae3b

bias_hh_l0 f4 [256]
-0.02436989 -0.0056652683 -0.047917478 0.00063338404 -0.045731455 -0.022218239 -0.08197627 -0.0035485364
0.008458869 0.09371915 -0.015364503 0.014103867 0.0023468768 0.0055961893 0.009002417 0.060473613
0.06555513 0.0513342 0.0020670907 -0.011459892 -0.014618331 0.0056171943 -0.0209119 0.0014157974
-0.00348192 0.011714363 0.050044835 0.052108582 -0.0022579697 0.055848006 -0.04594291 -0.011632602
0.020829642 0.074123114 -0.041577898 0.010813296 -0.0010870718 0.00075538293 0.002204468 0.034426507
-0.019879675 0.01538647 -0.03080408 -0.027452655 -0.013771726 -0.020006148 0.001952265 0.009521423
0.08466694 -0.00086783065 0.0541012 0.00869387 -0.0017284937 0.08682584 0.0122291185 -0.008574751
0.0036909396 0.0049856696 -0.024877802 0.0046629924 0.062241457 0.03169488 0.051037602 0.00010204637
0.015801352 -0.00874971 -0.035552163 0.014203474 0.024261039 -0.014630598 -0.03785979 -0.020317841
0.018364359 -0.0069136475 0.014029451 0.0046824487 -0.0014526845 0.01035939 0.012166589 0.026278311
0.004648487 -0.014914127 -0.0012619103 0.0014644838 0.004843699 -0.0045596003 -0.009377949 0.0040751295
-0.0056532873 0.0018908732 -0.0109157115 0.00978422 0.0011380267 -0.021138152 -0.010860482 0.00092803163
0.0050255484 -0.046574727 0.016019378 0.0010087079 0.0063467068 0.0073815337 -4.9342125e-06 0.021198407
0.009207755 -0.004588905 -0.08223016 -0.012596145 -0.0025215521 0.009737651 -0.005187546 0.0068908497
0.08559057 -0.00531368 -0.017905345 0.061896063 0.013661099 0.07659397 0.0053473026 0.0019870722
0.0052098385 0.0119197 -0.0036994044 -0.00015813156 -0.04245659 -0.008141186 -0.036062688 0.00030783465
-0.012416596 -0.0022570028 -0.004385456 -0.009739991 0.0027383429 -0.05351303 0.024461351 0.06212641
-0.04029801 0.07249591 0.024920195 0.017750135 -0.060142424 -0.0028720088 0.0060225525 0.017227316
0.037667077 -0.023118857 0.0008926947 0.036197424 -0.03578353 0.06950428 0.0015289781 0.004474902
-0.010002523 -0.006617938 -0.07762882 0.01945611 -0.0046640374 -0.010251992 0.05139377 -0.013508597
0.003038455 0.06023049 0.053061098 -0.036653712 -0.022520903 0.014572593 -0.000529079 0.06347077
-0.01759275 0.008364259 0.04393083 0.023892878 -0.018606437 -0.015679102 -0.0020171807 -0.004040162
-0.008494657 -0.009394868 0.04622185 -0.042746898 0.00020210177 0.0080307815 0.0050187767 0.00028276417
0.0014795773 -0.0016883084 0.0034229124 -0.027266191 0.0061658546 0.011935027 -0.09484793 -0.000100854944
-0.04702711 -0.02862737 0.047281917 -0.036995273 -0.0026444958 -0.010239286 -0.014008152 0.0077952105
-0.014639944 -0.024394851 -0.05775582 -0.015277085 -0.061902292 0.0011991471 -0.06698365 0.056076784
0.009346428 0.00023201326 0.0071345265 0.0020760386 0.0057474985 -0.06313514 -0.00057009625 0.022524953
-0.029732242 -0.020493764 0.004761475 0.07810587 -0.0022823706 0.00044913156 -0.010102336 -0.013205776
0.030652588 0.019670302 0.0076579507 -0.018440392 0.0539485 0.085716605 -0.00088510214 -0.022044454
-0.042278644 0.07061643 0.023808766 -0.017194988 0.0047622547 0.013980938 -0.040569082 0.015371888
-0.01598669 0.0037059456 -0.061572995 -0.047714263 -0.0008239995 0.028363707 0.017448137 0.012750618
0.011689973 0.0022232796 -0.026544852 -0.044192966 7.240002e-05 0.011698946 -0.017976882 0.005315599
00000000: 5da3 c7bc b7a3 b9bb 1e45 44bd af09 263a
00000010: e850 3bbd 0603 b6bc 2de3 a7bd 908e 68bb
00000020: 1197 0a3c d3ef bf3d 65bb 7bbc e813 673c
00000030: 0fce 193b 3d60 b73b e07e 133c 2eb3 773d
00000040: c541 863d cf43 523d 0778 073b 45c2 3bbc
00000050: b981 6fbc 7110 b83b 6f4f abbc 4792 b93a
00000060: ed30 64bb 99ed 3f3c d0fb 4c3d cf6f 553d
00000070: 72fa 13bb e1c0 643d a22e 3cbd ab96 3ebc
00000080: eda2 aa3c dccd 973d 964d 2abd 402a 313c
00000090: 147c 8eba e404 463a d678 103b cf02 0d3d
000000a0: b3da a2bc 8817 7c3c d758 fcbc 64e4 e0bc
000000b0: cea2 61bc efe3 a3bc 25e3 ff3a beff 1b3c
000000c0: dc65 ad3d 217f 63ba 3899 5d3d bc70 0e3c
000000d0: a08e e2ba bfd1 b13d a45c 483c 1d7d 0cbc
000000e0: b1e3 713b d45e a33b 88cc cbbc 04cc 983b
000000f0: e6f0 7e3d 7ed2 013d ce0c 513d ba01 d638
00000100: d671 813c f25a 0fbc 259f 11bd b0b5 683c
00000110: 16bf c63c 2db5 6fbc de12 1bbd 9a71 a6bc
00000120: da70 963c e18b e2bb c8db 653c 3a6f 993b
00000130: 0168 beba 6eba 293c 5f56 473c 9d45 d73c
00000140: 5652 983b 625a 74bc af66 a5ba ecf3 bf3a
00000150: e4b7 9e3b b368 95bb f8a5 19bc aa88 853b
00000160: 363f b9bb 2dd7 f73a d0d7 32bc fe4d 203c
00000170: d729 953a eb29 adbc 2af0 31bc 2647 733a
00000180: 5bad a43b 24c5 3ebd 123b 833c 9f36 843a
00000190: 09f8 cf3b cbe0 f13b 9090 a5b6 48a8 ad3c
000001a0: 20dc 163c 865e 96bb 4968 a8bd 1060 4ebc
000001b0: a040 25bb ab8a 1f3c 4afc a9bb a3cc e13b
000001c0: 1c4a af3d 611e aebb 3bae 92bc ba86 7d3d
000001d0: cdd2 5f3c 4ddd 9c3d 6d38 af3b 8a39 023b
000001e0: 4bb7 aa3b d84a 433c b571 72bb 1ed0 25b9
000001f0: f6e6 2dbd 9c62 05bc 78b6 13bd de64 a139
00000200: fa6e 4bbc 39ea 13bb dfb3 8fbb 7c94 1fbc
00000210: c575 333b 7b30 5bbd 2c63 c83c 4378 7e3d
00000220: 870f 25bd bc78 943d 7025 cc3c bb68 913c
00000230: e757 76bd 5038 3cbb d558 c53b 4d20 8d3c
00000240: cb48 1a3d c263 bdbc ba03 6a3a c043 143d
00000250: c091 12bd 4358 8e3d fe67 c83a 33a2 923b
00000260: 9fe1 23bc 4adb d8bb dcfb 9ebd 6c62 9f3c
00000270: c8d4 98bb f9f7 27bc 4682 523d 2a53 5dbc
00000280: d120 473b 3fb4 763d 9856 593d 3422 16bd
00000290: c27d b8bc e3c1 6e3c e4b1 0aba f7fc 813d
000002a0: ac1e 90bc 3f0a 093c d0f0 333d ffba c33c
000002b0: 876c 98bc 7671 80bc ad32 04bb 5663 84bb
000002c0: 2d2d 0bbc efec 19bc 1f53 3d3d 5f17 2fbd
000002d0: 48eb 5339 8a93 033c 8d74 a43b f73f 9439
000002e0: 60ee c13a 3b4a ddba f152 603b 595d dfbc
000002f0: f00a ca3b 228b 433c a23f c2bd 1682 d3b8
00000300: 809f 40bd f283 eabc afaa 413d 5b88 17bd
00000310: 474f 2dbb aec2 27bc 7382 65bc f76e ff3b
00000320: 60dc 6fbc b6d7 c7bc 5e91 6cbd bd4c 7abc
00000330: 428d 7dbd b32c 9d3a b92e 89bd c5b0 653d
00000340: c321 193c 9648 7339 bfc8 e93b 260e 083b
00000350: 8355 bc3b ff4c 81bd 8372 15ba 4086 b83c
00000360: 0891 f3bc 8ae2 a7bc 2606 9c3b f8f5 9f3d
00000370: d393 15bb 6b79 eb39 4584 25bc 0a5d 58bc
00000380: 231b fb3c 9d23 a13c 8cef fa3b 4e10 97bc
00000390: 1af9 5c3d 308c af3d 3306 68ba 9296 b4bc
000003a0: 5f2c 2dbd 599f 903d 9a0a c33c 81dc 8cbc
000003b0: b00c 9c3b 4e10 653c c42b 26bd 5fda 7b3c
000003c0: 85f6 82bc 73df 723b f733 7cbd 0870 43bd
000003d0: ac01 58ba 015b e83c 65ef 8e3c f8e7 503c
000003e0: 4d87 3f3c 71b4 113b 9774 d9bc af03 35bd
000003f0: 77d5 9738 f0ac 3f3c 4144 93bc 7a2e ae3b

weight_ih_l1 f4 [256, 64]
0.017547527 -0.0034427587 -0.05203309 -0.050589617 -0.09704349 -0.11687854 -0.010876666 -0.003781809
0.097468495 0.031896744 -0.13539831 0.025081467 -0.028894398 -0.014919276 -0.03378607 -0.040294044
-0.05411272 -0.103562005 0.014836724 -0.0033720932 0.0010740152 -0.01526111 -0.01709145 0.05260319
0.006945374 -0.003489206 -0.04091839 0.029027881 -0.03159549 -0.0135411015 -0.009517688 0.005050202
0.047691952 -0.05817847 0.018691566 0.013567238 -0.043663986 0.12889515 6.35776e-05 -0.02852471
-0.03474001 0.031655088 -0.0003117358 -0.013042208 0.021857064 -0.123780936 -0.07695476 -0.05533353
-0.10531426 0.017115762 -0.08021473 -0.09827627 0.013990209 0.016057264 0.021579383 0.018289978
-0.048268966 0.0027605963 -0.003960785 -0.08002692 0.02232422 -0.006955871 -0.100294344 -0.005093816
0.06592497 0.032369405 0.009076831 0.11592256 0.056694537 -0.18627304 -0.005266051 0.1631003
0.14243916 -0.028898876 -0.14033139 0.058803793 0.07079176 -0.08336648 -0.07583656 -0.021757813
-0.054138944 -0.09485055 -0.014964787 -0.048494782 -0.023809906 -0.043967653 0.014012338 0.041852437
-0.007245026 0.0011611612 -0.06798836 0.033693284 -0.045686804 0.055696253 0.008476934 -0.02067463
0.060089614 -0.09228675 0.09596358 -0.05879346 -0.08340302 0.0981334 0.00047194608 -0.0024197989
-0.050505053 0.08206481 -0.058363065 0.012762182 -0.063270316 -0.11440469 0.011315546 -0.06593741
-0.03977667 0.009918238 -0.014734213 -0.1326608 -0.0093463585 0.049328867 0.067037106 0.001440838
-0.02485711 -0.0026298133 0.0523761 -0.110020354 -0.074869916 0.014385471 -0.119480126 -0.013308167
-0.022102997 0.037310824 0.015480627 -0.071535744 -0.09884783 -0.06547679 0.043196898 -0.08764903
-0.10914926 0.11903456 -0.062160194 0.04473006 -0.050932247 -0.024156205 0.03299642 0.068427995
0.06773819 0.0889818 -0.037695356 -0.032720827 -0.007893829 -0.04077662 -0.034986902 0.024609389
-0.042012013 -0.0044537173 0.0046306266 -0.04520933 0.034294356 0.020886745 0.011257745 0.015559627
0.082979836 0.11478684 0.018394368 0.032995544 0.051707778 -0.0347733 -0.00023692288 -0.09808139
-0.032437503 -0.0489288 0.071833625 -0.033811398 -0.06772643 -0.07139204 -0.0051324368 -0.02115518
-0.0632313 -0.025001654 -0.049239777 0.112279296 0.00042256154 -0.0040573417 0.011018549 0.024344549
0.024561597 0.0017858956 -0.10026381 -0.0059948596 -0.112475224 0.07831919 0.032818403 -0.0207062
0.031416126 0.022260386 -0.10209698 -0.11722282 -0.07177571 -0.034971297 0.06838887 0.062351756
-0.10051486 -0.03130813 0.07029546 0.012116491 -0.055017147 -0.024559649 0.011597417 -0.030736376
0.040938668 -0.05891004 0.02634784 -0.080443084 -0.17483638 0.00485182 0.03117921 0.005315781
-0.07396687 0.014599627 -0.021448096 -0.059949853 -0.003636086 0.10236912 0.015182394 0.024325505
0.06915475 0.018518334 -0.12996848 0.023768136 0.03383049 0.08896401 -0.00074163463 0.018434988
-0.11157794 0.08151624 -0.12809616 -0.035797864 0.0139150685 -0.08809991 0.017170496 0.031469304
0.03626221 -0.01397523 -0.052219912 0.016620466 0.04055867 -0.01887686 0.0073898584 0.0030503834
-0.08168583 -0.00867764 -0.047420356 0.018488072 0.037404694 -0.037099786 -0.11570529 -0.0054428433
00000000: d5bf 8f3c e89f 61bb a620 55bd 0f37 4fbd
00000010: bdbe c6bd 045e efbd 0b34 32bc 3ad8 77bb
00000020: 909d c73d 29a6 023d dba5 0abe a677 cd3c
00000030: f2b3 ecbc fb6f 74bc 4363 0abd 5e0b 25bd
00000040: 4da5 5dbd 5118 d4bd bb15 733c 56fe 5cbb
00000050: f8c5 8c3a bc09 7abc 5e03 8cbc 7176 573d
00000060: 0596 e33b 2aab 64bb 0b9a 27bd e1cb ed3c
00000070: 466a 01bd 7fdb 5dbc 14f0 1bbc 2a7c a53b
00000080: a358 433d 8c4c 6ebd 0e1f 993c 1f49 5e3c
00000090: 02d9 32bd 17fd 033e f754 8538 a7ac e9bc
000000a0: 8a4b 0ebd c4a8 013d 7970 a3b9 fcae 55bc
000000b0: 960d b33c dc80 fdbd 759a 9dbd 69a5 62bd
000000c0: 01af d7bd 5b36 8c3c 9f47 a4bd 1245 c9bd
000000d0: 3137 653c 868a 833c 3fc7 b03c ddd4 953c
000000e0: aeb5 45bd 1feb 343b 79c9 81bb 27e5 a3bd
000000f0: 48e1 b63c 13ee e3bb 1f67 cdbd 07ea a6bb
00000100: ac03 873d c895 043d fdb6 143c cf68 ed3d
00000110: 8838 683d 5cbe 3ebe d68e acbb c403 273e
00000120: 92db 113e 56bd ecbc 08b3 0fbe 3fdc 703d
00000130: 45fb 903d 0cbc aabd 3350 9bbd 713d b2bc
00000140: ccc0 5dbd 0141 c2bd de2e 75bc 77a2 46bd
00000150: fe0c c3bc 6d17 34bd 0194 653c 766d 2b3d
00000160: af67 edbb 1b32 983a 7b3d 8bbd f801 0a3d
00000170: 1622 3bbd c121 643d d7e2 0a3c d75d a9bc
00000180: 8720 763d d600 bdbd 8e88 c43d 69d1 70bd
00000190: 34cf aabd 2afa c83d 886f f739 7d95 1ebb
000001a0: 63de 4ebd 9811 a83d 1c0e 6fbd 7918 513c
000001b0: de93 81bd 024d eabd d764 393c 310a 87bd
000001c0: ddec 22bd 1b80 223c c567 71bc 3cd8 07be
000001d0: 7821 19bc 110d 4a3d c04a 893d 80da bc3a
000001e0: 23a1 cbbc f258 2cbb 5288 563d 5a52 e1bd
000001f0: 6655 99bd 0ab1 6b3c ffb1 f4bd 800a 5abc
00000200: 5811 b5bc 3cd3 183d 75a2 7d3c 5581 92bd
00000210: bb70 cabd b218 86bd 3bef 303d 5681 b3bd
00000220: a689 dfbd 64c8 f33d b09b 7ebd de36 373d
00000230: 559e 50bd 3ce3 c5bc 4127 073d fa23 8c3d
00000240: 52ba 8a3d 173c b63d 7266 1abd 4606 06bd
00000250: 1e55 01bc 6305 27bd 6d4e 0fbd a199 c93c
00000260: ca14 2cbd 7df0 91bb 83bc 973b 6b2d 39bd
00000270: 3d78 0c3d ae1a ab3c 6872 383c ceed 7e3c
00000280: 55f1 a93d 5d15 eb3d c9af 963c 5626 073d
00000290: 89cb 533d 736e 0ebd 806e 78b9 e5de c8bd
000002a0: 30dd 04bd 9169 48bd 821d 933d d27d 0abd
000002b0: 28b4 8abd fd35 92bd 002e a8bb a14d adbc
000002c0: 697f 81bd 45d0 ccbc a6af 49bd b0f2 e53d
000002d0: 408b dd39 73f3 84bb 2587 343c 386e c73c
000002e0: 6735 c93c b614 ea3a 1d57 cdbd 8770 c4bb
000002f0: 6959 e6bd d065 a03d 976c 063d 0ca0 a9bc
00000300: 32ae 003d 6a5b b63c 3918 d1bd 8512 f0bd
00000310: 25ff 92bd 103e 0fbd 770f 8c3d 8e64 7f3d
00000320: bcda cdbd f43c 00bd 11f7 8f3d 3f84 463c
00000330: a959 61bd 5131 c9bc 1803 3e3c daca fbbc
00000340: 4eaf 273d a74b 71bd 6dd7 d73c 58bf a4bd
00000350: 4f08 33be 04fc 9e3b 8b6b ff3c 0130 ae3b
00000360: f17b 97bd 4633 6f3c ebb3 afbc fa8d 75bd
00000370: 664b 6ebb e7a6 d13d 93bf 783c 4846 c73c
00000380: 01a1 8d3d c3b3 973c 7516 05be 65b5 c23c
00000390: d791 0a3d c332 b63d 426a 42ba f904 973c
000003a0: fa82 e4bd fdf1 a63d a42b 03be c8a0 12bd
000003b0: 07fc 633c ba6d b4bd 24a9 8c3c f5e5 003d
000003c0: af87 143d 5df8 64bc 8ce4 55bd a527 883c
000003d0: d920 263d a5a3 9abc a026 f23b f1e8 473b
000003e0: e74a a7bd a92c 0ebc d93b 42bd 4c74 973c
000003f0: aa35 193d f2f5 17bd e5f6 ecbd e159 b2bb

weight_hh_l1 f4 [256, 64]
0.05048281 0.0763719 -0.0012208688 -0.03546315 0.0055519976 -0.07242387 0.0049136295 -0.08780665
-0.03466252 0.082638405 0.034606602 0.07145719 0.0059182104 -0.08556698 -0.12286948 -0.032459985
0.01396016 0.0037406925 -0.023559606 -0.040175654 -0.027281359 -0.007907258 0.0021147158 -0.0182349
-0.091000006 -0.0427946 0.079426326 0.03960533 0.092258014 -0.07774705 0.033322427 -0.009251887
-0.008769388 -0.028474448 0.055762555 -0.015764572 0.06786429 -0.060245536 0.021074733 -0.027346395
-0.028824758 0.034840614 -0.11389702 0.028204776 0.01603747 -0.04811717 -0.12139531 -0.039265685
0.004308793 -0.027359981 -0.018360343 0.007053662 -0.06553081 0.0058941664 0.11177873 -0.060752913
0.018850716 0.0013213264 -0.039505795 0.04348583 -0.023820352 0.012894115 -0.048417043 0.045636497
0.053265918 -0.025239399 0.04160659 -0.02368658 0.0051645725 -0.047905732 -0.038658123 -0.053952403
0.035107106 0.009678345 0.024566475 0.06676346 0.018241802 0.009963967 -0.01860995 0.05199786
0.02421383 0.031102406 0.0002289621 -0.07485004 0.007536673 -0.004836378 0.03123539 0.029427351
-0.10760976 0.013664595 0.032602843 0.11050975 0.072912306 -0.06734063 0.09338289 -0.044539005
0.011998829 -0.033455055 0.036573756 0.0013128698 0.08609819 -0.030177498 -0.00094037433 -0.06860576
-0.016513618 -0.08870215 -0.06572417 0.035344023 0.007778361 -0.0072645005 -0.06734916 0.008589905
0.02688957 0.015429929 -0.054041773 0.009407957 -0.0707334 -0.033088487 0.07938039 -0.09164107
-0.009286492 0.009775204 0.022339202 0.0471585 -0.10093175 0.031166632 -0.0137526 0.098926306
0.011812557 -0.00830482 -0.028695058 -0.021742458 0.012216348 -0.019283367 -0.036188222 -0.0072289035
0.0003595352 0.013127576 0.027440095 0.010208981 0.01017234 0.0081327325 0.0022004996 0.006510716
-0.03425904 -0.029113295 0.02255198 0.0026985302 0.011646632 -0.062126122 -0.01966754 0.007558441
-0.05856954 0.05017707 -0.024046317 -0.024668735 -0.012662955 -0.019243332 0.010954272 0.040936537
-0.0031212845 -0.027521875 0.026648402 0.022472598 0.045829806 -0.013199577 0.0031242273 0.03614012
-0.029671986 -0.034675933 0.033578105 0.011748566 0.030349733 0.020666828 0.0191598 0.026665637
0.029910514 -0.03444763 0.0023066674 -0.009332256 0.029138166 0.03496118 0.003839311 0.060434468
0.022369292 -0.018635666 0.037984066 0.017770255 0.042365566 0.031802718 -0.00094523415 -0.012910563
-0.0077188304 -0.007751354 -0.06503587 0.13580811 -0.11329497 0.012187687 0.02321981 0.0066462345
0.028780969 0.022806108 -0.042726927 -0.10662274 -0.072782114 -0.041254662 0.02193728 0.06888238
0.013944276 -0.004785062 0.050894864 0.0044906205 0.07193427 0.018403465 0.02618033 0.056543257
0.04606057 -0.10231946 -0.024700155 -0.005807772 -0.02819715 0.063342564 0.0034284291 -0.034966815
-0.08680668 0.0347237 0.019107923 0.037615873 -0.051093455 -0.03886503 0.014938501 -0.080956325
-0.030166814 -0.061285622 0.06689244 -0.005094901 0.041965652 0.010746544 -0.07171075 -0.035657883
0.009789506 0.046930745 -0.088457145 -0.013527514 0.031328812 0.035468284 -0.010495114 0.023926046
-0.03476695 -0.054011315 -0.078232035 -0.058827672 -0.0021547235 -0.10160659 0.05778245 -0.006908912
00000000: 10c7 4e3d df68 9c3d 8f05 a0ba cf41 11bd
00000010: 88ed b53b f752 94bd 8302 a13b f9d3 b3bd
00000020: 49fa 0dbd 533e a93d a7bf 0d3d 2658 923d
00000030: 8ced c13b be3d afbd fea2 fbbd c3f4 04bd
00000040: 28b9 643c 6826 753b 1300 c1bc 3a8f 24bd
00000050: 287d dfbc 728d 01bc 0b97 0a3b 5b61 95bc
00000060: 365e babd 6449 2fbd 45aa a23d 3339 223d
00000070: c5f1 bc3d d839 9fbd 197d 083d 3a95 17bc
00000080: 7bad 0fbc 3f43 e9bc 4767 643d b424 81bc
00000090: 6ffc 8a3d 06c4 76bd eba4 ac3c 8c05 e0bc
000000a0: e621 ecbc 08b5 0e3d d742 e9bd b40d e73c
000000b0: 0361 833c 8216 45bd 1b9e f8bd 0ed5 20bd
000000c0: c730 8d3b 0a22 e0bc 6e68 96bc 6822 e73b
000000d0: 0435 86bd da23 c13b 3fec e43d 0cd8 78bd
000000e0: d16c 9a3c 5b30 ad3a d4d0 21bd 331e 323d
000000f0: e622 c3bc d741 533c f350 46bd 56ed 3a3d
00000100: 5d2d 5a3d dbc2 cebc ac6b 2a3d 5c0a c2bc
00000110: 933b a93b cd38 44bd fb57 1ebd 32fd 5cbd
00000120: 78cc 0f3d ec91 1e3c a23f c93c 48bb 883d
00000130: d56f 953c e83f 233c e573 98bc b5fb 543d
00000140: 155c c63c 79ca fe3c 8c15 7039 fa4a 99bd
00000150: 32f6 f63b 7b7a 9ebb 5ce1 ff3c a111 f13c
00000160: 8162 dcbd 77e1 5f3c 8f8a 053d f052 e23d
00000170: 0c53 953d e2e9 89bd 873f bf3d 886e 36bd
00000180: bd96 443c 2b08 09bd 5dce 153d 9a14 ac3a
00000190: 3f54 b03d cd36 f7bc 7483 76ba 2d81 8cbd
000001a0: 9147 87bc 79a9 b5bd 659a 86bd e5c4 103d
000001b0: 9fe1 fe3b 0c0b eebb 5bee 89bd acbc 0c3c
000001c0: 8447 dc3c d0cd 7c3c e85a 5dbd d523 1a3c
000001d0: acdc 90bd cb87 07bd 3092 a23d 50ae bbbd
000001e0: 5f26 18bc 2d28 203c b400 b73c 4529 413d
000001f0: 4eb5 cebd 2a51 ff3c 9652 61bc e099 ca3d
00000200: 7489 413c f110 08bc e611 ebbc 3d1d b2bc
00000210: 1427 483c 27f8 9dbc 1a3a 14bd 70e0 ecbb
00000220: ff7f bc39 0b15 573c 0dca e03c 9243 273c
00000230: e3a9 263c 273f 053c 4236 103b d857 d53b
00000240: 3553 0cbd 017f eebc eebe b83c d3d9 303b
00000250: 84d1 3e3c f677 7ebd d21d a1bc ccac f73b
00000260: 9de6 6fbd 7986 4d3d c8fc c4bc 1616 cabc
00000270: 4878 4fbc 31a4 9dbc 8c79 333c 12ad 273d
00000280: 778e 4cbb 8e75 e1bc c04d da3c 7418 b83c
00000290: 09b8 3b3d 0a43 58bc d6bf 4c3b aa07 143d
000002a0: aa12 f3bc 5a08 0ebd 3289 093d 0f7d 403c
000002b0: 01a0 f83c 7b4d a93c 03f5 9c3c e571 da3c
000002c0: e506 f53c f518 0dbd 752b 173b 52e6 18bc
000002d0: 2ab3 ee3c 7433 0f3d f39c 7b3b 228a 773d
000002e0: ce3f b73c d3a9 98bc 2e95 1b3d ed92 913c
000002f0: 8487 2d3d 9143 023d 97c9 77ba d386 53bc
00000300: 3eee fcbb 12ff fdbb 8731 85bd 4811 0b3e
00000310: 3107 e8bd ddae 473c 7937 be3c a8c8 d93b
00000320: 11c6 eb3c e0d3 ba3c 6e02 2fbd 065d dabd
00000330: ca0e 95bd a6fa 28bd d0b5 b33c 3512 8d3d
00000340: 8876 643c 02cc 9cbb 2277 503d 0e26 933b
00000350: 4652 933d ddc2 963c 2278 d63c e799 673d
00000360: 02aa 3c3d dd8c d1bd fb57 cabc 1f4f bebb
00000370: b6fd e6bc bfb9 813d 7faf 603b 5d39 0fbd
00000380: b3c7 b1bd 703a 0e3d 3888 9c3c 1a13 1a3d
00000390: 5f47 51bd f030 1fbd 9dc0 743c 6ecc a5bd
000003a0: 6520 f7bc a206 7bbd e7fe 883d 21f3 a6bb
000003b0: 2de4 2b3d 4612 303c 16dd 92bd 000e 12bd
000003c0: 2a64 203c 743a 403d 0529 b5bd 82a2 5dbc
000003d0: a452 003d 3147 113d b3f3 2bbc 8e00 c43c
000003e0: ca67 0ebd f83a 5dbd 1e38 a0bd 49f5 70bd
000003f0: 4336 0dbb 1e17 d0bd 4aad 6c3d 2864 e2bb

bias_ih_l1 f4 [256]
0.018621013 0.0006981346 0.054765474 -0.07018271 0.07846196 -0.011463681 0.12497235 0.099861614
0.00937189 0.035587516 -0.019691648 0.042562984 0.016808812 0.05153464 -0.011223146 0.016879013
-0.060826447 -0.038089454 0.1292115 0.09745066 0.06489772 0.0810001 0.05094565 0.09248545
-0.09536293 -0.040539496 0.054177422 0.08341148 0.07551014 0.101818584 -0.06229527 0.0028686114
-0.033611335 -0.09081773 -0.03501496 -0.040594164 0.081278235 0.06417928 0.019983973 0.00957629
0.06788292 -0.07370567 0.05222769 0.10193371 0.0139731625 -0.031843647 -0.0426211 0.07220347
0.14578524 -0.10641273 0.1257592 0.09484712 0.076934345 -0.007470271 -0.010538771 0.10945006
-0.03351185 -0.07835077 0.01936415 -0.060072515 -0.022359071 0.014664287 -0.017171826 0.1175967
-0.025758341 -0.03987036 0.12470555 -0.07046814 0.005863383 0.13059862 -0.038108848 0.01697722
0.0979772 -0.08921264 -0.028484313 0.06027762 0.04089975 0.05033325 0.023962243 -0.076425456
0.043101132 -0.026197592 0.035358977 -0.007716172 0.11161919 0.08706604 -0.017915847 0.01055539
-0.05964532 0.13128205 -0.057896968 -0.0071440493 -0.037705112 0.007996054 0.08312627 -0.009551772
-0.011120058 -0.092216976 0.048361905 -0.009412259 0.038230397 -0.00749308 0.018583972 -0.07258833
-0.008915441 0.057266805 0.15544817 -0.06811122 -0.010464946 0.03128744 0.050328813 0.05606683
0.04166009 0.107122995 0.029519247 -0.03517502 0.014113756 -0.031764723 -0.005456593 0.10831327
-0.07126993 -0.047750488 0.05156444 -0.025904505 -0.038944997 0.069962144 -0.03477089 0.04561629
0.052715633 0.08211483 -0.1114601 0.08880262 0.06542099 -0.07201544 0.09645065 -0.04336967
0.06593372 0.026529962 -0.09851125 -0.044055734 -0.08011449 -0.0837756 -0.038781185 0.06716361
0.034069575 -0.046920564 0.04276646 0.02726914 -0.011512974 -0.07795901 -0.038541727 0.09267953
-0.0800725 0.0454593 -0.10985616 0.07409812 -0.12200242 -0.07638743 -0.10515363 -0.009869324
-0.07524539 0.07089029 0.06002826 0.057163816 -0.020421388 0.008653554 -0.06614525 0.0638864
-0.065028824 0.0027488573 0.015650371 0.12018096 -0.030988406 -0.025834484 0.052492663 -0.08952644
0.078203775 0.100837864 0.018722635 -0.06811679 -0.010911832 0.066590406 -0.027119046 -0.089861445
-0.0053450847 -0.07084336 0.040827576 -0.086612046 0.10144086 -0.09652491 -0.011397638 -0.05838836
-0.032087594 0.07022168 -0.039516475 0.057446335 -0.034402873 -0.058206473 0.15031056 0.123183206
-0.04002388 0.014388703 0.08259606 0.05906596 0.025790527 0.102889456 0.10092882 0.065195456
0.08780483 0.031175409 0.1440956 0.087307826 -0.040448003 0.04897264 0.019550007 0.08125609
-0.014353547 0.10365076 0.050167315 0.09943742 0.028327381 0.07313456 0.10280588 0.048469845
-0.039787374 0.011201986 -0.06345797 -0.05539709 0.11264742 0.115455694 0.0112801595 -0.06101832
0.10884199 -0.08426206 -0.07551052 0.03106674 -0.05233101 -0.057907097 0.089001365 -0.008652008
0.104799055 0.035344478 0.09213591 -0.037817433 0.022792289 0.06229392 -0.09515885 0.023070246
-0.00023276488 -0.08315969 -0.0305748 -0.05760923 -0.026434477 0.009975863 -0.016342271 0.0036391695
00000000: 188b 983c 0503 373a c351 603d f4bb 8fbd
00000010: aab0 a03d 2ad2 3bbc 81f1 ff3d 3f84 cc3d
00000020: 8e8c 193c 37c4 113d 6150 a1bc 8656 2e3d
00000030: a2b2 893c fd15 533d 49e1 37bc db45 8a3c
00000040: 2725 79bd b003 1cbd 0550 043e 3694 c73d
00000050: 19e9 843d 61e3 a53d 63ac 503d 0369 bd3d
00000060: a44d c3bd be0c 26bd 25e9 5d3d a3d3 aa3d
00000070: 0fa5 9a3d 4386 d03d 5329 7fbd 50ff 3b3b
00000080: 0aac 09bd a5fe b9bd d96b 0fbd 1146 26bd
00000090: 3475 a63d 6d70 833d 6eb5 a33c dfe5 1c3c
000000a0: 3306 8b3d 00f3 96bd b4ec 553d 9fc2 d03d
000000b0: b1ef 643c 7c6e 02bd 7693 2ebd 6adf 933d
000000c0: ba48 153e ebee d9bd 05c7 003e 353f c23d
000000d0: c18f 9d3d 2dc9 f4bb cfaa 2cbc 5a27 e03d
000000e0: b943 09bd 5e76 a0bd 91a1 9e3c 990e 76bd
000000f0: 5f2a b7bc 7a42 703c eeab 8cbc 8ad6 f03d
00000100: 2803 d3bc 1a4f 23bd a065 ff3d 9a51 90bd
00000110: 9f21 c03b a5bb 053e 0618 1cbd d013 8b3c
00000120: 45a8 c83d 1eb5 b6bd ef57 e9bc aae5 763d
00000130: 7f86 273d 3d2a 4e3d 774c c43c f384 9cbd
00000140: d08a 303d 559c d6bc 93d4 103d f1d7 fcbb
00000150: 9a98 e43d ae4f b23d 41c4 92bc 84f0 2c3c
00000160: a74e 74bd cd6e 063e 5f25 6dbd a118 eabb
00000170: ad70 1abd e201 033c 1b3e aa3d 097f 1cbc
00000180: e730 36bc 41dc bcbd 2217 463d e035 1abc
00000190: 7a97 1c3d 8388 f5bb 6a3d 983c 31a9 94bd
000001a0: 1212 12bc 9990 6a3d ce2d 1f3e e57d 8bbd
000001b0: 2a75 2bbc 4227 003d 9625 4e3d 55a6 653d
000001c0: c5a3 2a3d 4d63 db3d 59d2 f13c af13 10bd
000001d0: 623d 673c ba1b 02bd 38cd b2bb 59d3 dd3d
000001e0: f8f5 91bd 0496 43bd 3c35 533d af35 d4bc
000001f0: ca84 1fbd 5048 8f3d ec6b 0ebd 26d8 3a3d
00000200: 59ec 573d d22b a83d 3145 e4bd 26de b53d
00000210: 71fb 853d d57c 93bd eb87 c53d 65a4 31bd
00000220: 4208 873d 5d55 d93c 44c0 c9bd c973 34bd
00000230: 1113 a4bd 8b92 abbd 05d9 1ebd 138d 893d
00000240: 8a8c 0b3d c72f 40bd e22b 2f3d 8863 df3c
00000250: eaa0 3cbc f9a8 9fbd eedd 1dbd c4ce bd3d
00000260: 0dfd a3bd 8833 3a3d 44fc e0bd c1c0 973d
00000270: 68dc f9bd 0371 9cbd c95a d7bd f2b2 21bc
00000280: 411a 9abd ee2e 913d 31e0 753d 9b24 6a3d
00000290: c14a a7bc a3c7 0d3c 2977 87bd dfd6 823d
000002a0: d52d 85bd 2c26 343b 3535 803c 6f21 f63d
000002b0: 66db fdbc d7a2 d3bc 8c02 573d a359 b7bd
000002c0: 4d29 a03d 1584 ce3d 3660 993c d180 8bbd
000002d0: 8ac7 32bc 8d60 883d c328 debc 4709 b8bd
000002e0: d225 afbb 5316 91bd d13a 273d a861 b1bd
000002f0: 3ac0 cf3d daae c5bd 29bd 3abc a228 6fbd
00000300: 486e 03bd 62d0 8f3d 07dc 21bd d94c 6b3d
00000310: 07ea 0cbd e969 6ebd 03eb 193e 7a47 fc3d
00000320: 14f0 23bd 98be 6b3c 2028 a93d 26ef 713d
00000330: a846 d33c b5b7 d23d c5b3 ce3d 3285 853d
00000340: 05d3 b33d 9263 ff3c cc8d 133e 72ce b23d
00000350: ceac 25bd 8997 483d 5627 a03c 9869 a63d
00000360: 242b 6bbc da46 d43d 3e7c 4d3d d9a5 cb3d
00000370: d30e e83c 92c7 953d e48b d23d 5188 463d
00000380: 16f8 22bd 8988 373c 41f6 81bd 0fe8 62bd
00000390: b1b3 e63d 0974 ec3d 6bd0 383c 59ee 79bd
000003a0: 8de8 de3d 9691 acbd 42a5 9abd ad7f fe3c
000003b0: 0b59 56bd fe2f 6dbd 5946 b63d 27c1 0dbc
000003c0: e3a0 d63d 5fc5 103d c1b1 bc3d 74e6 1abd
000003d0: e5b6 ba3c e927 7f3d a5e2 c2bd d0fd bc3c
000003e0: 5912 74b9 a14f aabd 0178 fabc a8f7 6bbd
000003f0: 1e8d d8bc cd71 233c 3ae0 85bc 227f 6e3b
